hw2 6.04.36 pm/hw2_submission/savedModel.pth (torch_old, 690450 bytes, 12 tensors)

encoder.weight_ih_l0 f4 [400, 100]
0	0x3e1c0547	0.15236388
1	0xbe31d4f6	-0.17366394
2	0xbdd325b4	-0.10309926
3	0x3e78aa5a	0.24283734
4	0x3e23629d	0.15955587
5	0x3e470e6f	0.194391
6	0x3da1ff65	0.07910041
7	0x3d8a2505	0.06745342
8	0xbd16d6a3	-0.036825787
9	0xbdb782b3	-0.08960476
10	0xbead003e	-0.33789247
11	0xbdbcc854	-0.09217897
12	0x3d093d84	0.03350593
13	0x3eb0c428	0.34524655
14	0xbdf7f9a3	-0.12108161
15	0x3db97bac	0.09056792
16	0x3d49f030	0.049301326
17	0xbef3e579	-0.4763601
18	0xbdc38931	-0.095476516
19	0xbe6532be	-0.22382638
20	0xbe7efc59	-0.2490095
21	0xbe05480d	-0.13015766
22	0x3e88671b	0.26641163
23	0xbc020045	-0.007934635
24	0xbe939dd9	-0.28831366
25	0xbb44540d	-0.0029957325
26	0x3eb4d9b8	0.35322356
27	0x3d5f54e8	0.054524332
28	0xbeacfe48	-0.3378775
29	0xbd152237	-0.036409583
30	0xbe1fd5f9	-0.15608968
31	0xbd72ea89	-0.0593057
32	0xbd40caaf	-0.047068294
33	0x3e8e9fd4	0.27856314
34	0x3bf2604a	0.0073967325
35	0x3cb6782d	0.022274101
36	0x3d12707a	0.035751797
37	0x3e4cdd31	0.20006253
38	0xbe854208	-0.2602694
39	0xbd322b8e	-0.04349857
40	0x3d993c91	0.07482255
41	0xbe40e3ee	-0.18836948
42	0xbe8092b7	-0.25111935
43	0xbd5fc13c	-0.054627642
44	0x3e942253	0.28932437
45	0xbc493ebf	-0.012283026
46	0xbf0e3aa3	-0.5555822
47	0x3e3a7287	0.18207751
48	0x3e842960	0.25812817
49	0x3e5f2549	0.21791567
50	0x3dce9c72	0.10088433
51	0xbd8a2c07	-0.06746679
52	0x3e39eaba	0.18155947
53	0xbdd130c9	-0.10214383
54	0xbe133915	-0.14377244
55	0xbc2795e4	-0.010228608
56	0xbe59ce8e	-0.212702
57	0x3eb4d219	0.35316542
58	0xbe1bcc2c	-0.15214604
59	0xbcca257b	-0.024676075
60	0xbeed723e	-0.46376222
61	0x3c1e2d0a	0.009654293
62	0x3eaced9e	0.33775038
63	0xbd948350	-0.07251608
64	0xbde11ee6	-0.109922215
65	0xbe8a6215	-0.27027956
66	0xbd3535e2	-0.04424084
67	0xbd99a9c0	-0.0750308
68	0x3cdfe57b	0.027331105
69	0x3df96b51	0.12178672
70	0xbebaa7bd	-0.364561
71	0xbc5093ad	-0.012730521
72	0x3e8fd21f	0.28089997
73	0x3e79194f	0.2432606
74	0x3d8af6e1	0.0678537
75	0x3d5c74a2	0.053822167
76	0x3e1002ac	0.14063519
77	0xbe081e5d	-0.13292833
78	0x3e235bd9	0.15953006
79	0x3f0be7a4	0.5465033
80	0xbe049a0c	-0.12949389
81	0xbe922e43	-0.2855092
82	0xbd9cddec	-0.07659516
83	0xbdd9887e	-0.10621737
84	0x3e8727bc	0.26397502
85	0x3d44c587	0.04803994
86	0xbe978de0	-0.2960043
87	0x3ebe06a5	0.37114444
88	0x3e5d253b	0.21596234
89	0x3e0bd854	0.13656741
90	0x3e545e20	0.20739031
91	0xbd864d4f	-0.06557714
92	0x3e2d187c	0.16903871
93	0x3ebd23a2	0.36941248
94	0xbd100769	-0.035163317
95	0x3e2efd35	0.17088778
96	0x3e43381e	0.19064376
97	0xbc5d0acc	-0.013491344
98	0x3d9609fd	0.07326124
99	0x3e3fcd42	0.18730643
100	0x3ea78a24	0.3272258
101	0xbe09dff9	-0.13464345
102	0xbd64ef1f	-0.055892106
103	0xbdf68af8	-0.12038225
104	0xbc936e37	-0.01799689
105	0xbde0ad25	-0.10970525
106	0x3dc0897d	0.09401224
107	0x3eb864b6	0.36014336
108	0x3eaf4ff0	0.34240675
109	0x3e8a6e3f	0.27037236
110	0x3ea27dab	0.31736502
111	0xbe47c7af	-0.19509767
112	0x3ea2d102	0.31800085
113	0x3e64928f	0.22321533
114	0x3de8a266	0.113591
115	0x3e0414a8	0.12898505
116	0xbd999f32	-0.07501067
117	0x3d39e137	0.045380797
118	0xbb833af0	-0.0040048286
119	0x3d76ea24	0.060281888
120	0x3dd3baef	0.10338389
121	0xbe049600	-0.12947845
122	0x3def963d	0.116985776
123	0x3dfd8303	0.12378504
124	0x3d334ca6	0.04377427
125	0x3c80777a	0.01568197
126	0xbdc3ebd1	-0.09566463
127	0xbb272321	-0.0025503116
128	0xbee97e03	-0.45603952
129	0xbd8d4953	-0.06898751
130	0x3dd3de28	0.10345107
131	0x3dd34496	0.10315816
132	0x3caab7eb	0.020839652
133	0x3e9fb432	0.31192166
134	0xbe891009	-0.26770046
135	0x3ec0b029	0.376344
136	0x3e192d9a	0.14958802
137	0x3d8dc852	0.06922974
138	0xbdd462cf	-0.10370409
139	0xbdf5b4d1	-0.119973786
140	0x3e472e4b	0.19451253
141	0x3dd2472b	0.102674805
142	0x3de99a3b	0.1140637
143	0xbe0f9682	-0.14022258
144	0x3e5d48d6	0.21609816
145	0x3e5796ce	0.21053621
146	0xbe8e9103	-0.2784501
147	0xbd3c2cd9	-0.045941208
148	0xbd3b8d41	-0.045789007
149	0x3cc1f172	0.0236747
150	0x3c4c015c	0.012451496
151	0xbd04005d	-0.03222691
152	0xbf0ca5d1	-0.54940516
153	0xbc98b01a	-0.01863866
154	0xbe31856d	-0.17336054
155	0x3da22e93	0.079190396
156	0xbdf22b97	-0.1182472
157	0x3de66887	0.11250406
158	0x3a8e082d	0.0010836177
159	0x3d29c06a	0.041443266
160	0x3d8b276e	0.0679463
161	0xbe4a9a59	-0.19785441
162	0x3ecb8983	0.3975335
163	0x3e85efae	0.26159424
164	0xbe2eb750	-0.17062116
165	0xbeea0de5	-0.45713726
166	0x3ca1fce5	0.01977391
167	0xbccf81e8	-0.025330499
168	0x3ca849ce	0.020543005
169	0x3dd6e3a0	0.10492635
170	0xbe056644	-0.13027292
171	0x3cd6cf85	0.026222
172	0x3e9342dd	0.2876195
173	0xbe34731e	-0.17622039
174	0x3d0ebb12	0.034846373
175	0x3e302dba	0.17204943
176	0x3d6f1349	0.058368
177	0x3e06ac40	0.13151646
178	0xbe9a9fcb	-0.30200037
179	0xbd748c8c	-0.05970435
180	0x3dfa0892	0.12208666
181	0xbe452bd4	-0.19255
182	0xbd4fead4	-0.05076106
183	0xbe4dc388	-0.2009412
184	0x3dcf668d	0.10126982
185	0xbec219c7	-0.37910292
186	0x3ca1edb3	0.019766664
187	0x3df5ac75	0.11995784
188	0xbe1f58a1	-0.15561153
189	0xbdbb7991	-0.09154046
190	0x3f02b979	0.5106426
191	0xbe3806f3	-0.17971401
192	0x3daac4f2	0.083383456
193	0xbec5746a	-0.3856538
194	0xbe079f0e	-0.13244268
195	0x3e448bc0	0.19193935
196	0x3ee667ae	0.45000976
197	0x3e290bfe	0.16508481
198	0x3da9c82c	0.08290133
199	0x3e5e5773	0.21713047
200	0x3ef4a62d	0.47783032
201	0xbd848c42	-0.064720646
202	0x3e6463d3	0.22303705
203	0xbed84dc2	-0.42246825
204	0xbe2c724c	-0.16840476
205	0xbe95c84a	-0.2925437
206	0x3e9aed4f	0.30259177
207	0xbe81465c	-0.25248992
208	0xbe4981ea	-0.19678465
209	0x3c916583	0.0177486
210	0xbd64a55e	-0.05582177
211	0xbe2770ad	-0.16351576
212	0xbea96179	-0.33082178
213	0x3e26a03c	0.16272062
214	0xbdfb757d	-0.122782685
215	0x3bff4efa	0.007791397
216	0x3e88248f	0.26590392
217	0x3c478150	0.012176827
218	0xbde89daf	-0.11358201
219	0x3e131aae	0.14365646
220	0x3e173599	0.1476654
221	0x3e530463	0.20607142
222	0x3eb121cb	0.34596094
223	0x3dea71a5	0.11447457
224	0xbd736fe9	-0.059432898
225	0xbe741d91	-0.23839404
226	0xbcb65f85	-0.022262344
227	0x3d65df1c	0.056120977
228	0x3e8d9454	0.27652228
229	0xbd97c192	-0.074099675
230	0x3e648fed	0.22320528
231	0xbd85499c	-0.065081805
232	0xbe377be4	-0.17918354
233	0xbd814d9b	-0.0631363
234	0xbe6fef78	-0.23431194
235	0xbd8bfbc8	-0.06835133
236	0xbea462e5	-0.321067
237	0x3e2055ab	0.1565768
238	0xbd35eaa0	-0.04441321
239	0x3ef10a13	0.47078
240	0xbcc9b700	-0.024623394
241	0x3e010ec0	0.12603283
242	0xbe4962c8	-0.19666588
243	0x3daa3c7f	0.0831232
244	0x3ea322e7	0.31862566
245	0x3eb28104	0.34864056
246	0x3dec8039	0.11547894
247	0xbe7348bf	-0.23758219
248	0xbd556584	-0.052098766
249	0x3dc6c865	0.09706191
250	0xbed7a230	-0.42115927
251	0x3e1c5e1e	0.15270278
252	0x3d8a20bc	0.06744525
253	0x3c9f1e60	0.019423664
254	0xbc316d14	-0.010829229
255	0x3e36e392	0.17860249

encoder.weight_hh_l0 f4 [400, 100]
0	0x3da86c44	0.08223775
1	0x3b817442	0.0039506266
2	0x3e00fb0c	0.12595767
3	0x3d337a15	0.0438176
4	0x3e41dfaf	0.18932985
5	0x3dba47eb	0.090957485
6	0x3d0713ac	0.032977745
7	0x3e4ccec0	0.20000744
8	0x3d978bdd	0.07399724
9	0xbe227111	-0.15863444
10	0xbe462566	-0.19350204
11	0x3d437fe3	0.047729384
12	0xbe602ce6	-0.21892127
13	0xbe04af99	-0.1295761
14	0xbd81fec3	-0.0634742
15	0x3e36da62	0.17856744
16	0xbdea2a76	-0.1143388
17	0xbe094774	-0.13406163
18	0xbd915b42	-0.07097484
19	0x3c7cada4	0.0154222585
20	0xbe24e224	-0.16101891
21	0x3e6f909b	0.23395006
22	0x3c4fa112	0.0126726795
23	0xbd235ceb	-0.039883535
24	0x3d70565c	0.05867611
25	0x3e876dfa	0.26451093
26	0x3cf1f18f	0.02953413
27	0xbe90b642	-0.28264052
28	0xbde862f0	-0.11346996
29	0x3e4cde6d	0.20006724
30	0xbcca1972	-0.024670336
31	0x3c2b24a8	0.010445751
32	0xbe8fa33c	-0.28054225
33	0x3daa6195	0.083193935
34	0xbe382a43	-0.17984872
35	0xbe535a02	-0.20639804
36	0x3e1654f6	0.14680848
37	0xbe628963	-0.22122721
38	0xbe1a0aaa	-0.1504313
39	0xbd5220ca	-0.0513008
40	0xbe5f9c79	-0.21837033
41	0xbe2774f9	-0.16353215
42	0xbe552671	-0.20815445
43	0xbda9177a	-0.08256431
44	0x3e6a9a65	0.2291046
45	0xbcdac7c1	-0.026706578
46	0x3c7ccd27	0.0154297715
47	0xbdcf5466	-0.101235196
48	0x3e78228b	0.24231927
49	0xbdf91632	-0.121624365
50	0xbbef36c5	-0.00730023
51	0x3e6d16dc	0.23153251
52	0x3e36e2d2	0.17859963
53	0x3ddf5e19	0.109066196
54	0xbd4f6917	-0.05063733
55	0xbe5984bf	-0.21242045
56	0x3e45b95c	0.1930899
57	0x3d81e233	0.06341972
58	0x3e92ed25	0.28696552
59	0x3dfb4db8	0.12270683
60	0xbb99a1bc	-0.0046884697
61	0x3e7dca63	0.24784236
62	0x3dcd6f85	0.10031036
63	0xbe193f31	-0.14965512
64	0xbe938e3c	-0.28819454
65	0x3ca60e8f	0.020270614
66	0xbdc740ea	-0.09729178
67	0x3e331090	0.17486787
68	0xbd4b6cb3	-0.04966421
69	0xbd4089a1	-0.047006253
70	0x3ed33c32	0.41256863
71	0x3e0a3f79	0.13500775
72	0xbcfdb347	-0.030969275
73	0xbe299559	-0.16560878
74	0xbd4a9710	-0.04946047
75	0x3e23d56d	0.15999384
76	0xbde3914a	-0.11111696
77	0xbda0b058	-0.07846135
78	0xbdf6c0a9	-0.12048466
79	0x3a056072	0.0005087919
80	0xbe0e8944	-0.1391955
81	0xbd30a621	-0.043127183
82	0x3d0955fc	0.033529267
83	0x3dba27a0	0.09089589
84	0xbe0ebcdd	-0.13939233
85	0xbd51315f	-0.051072475
86	0x3d5db82b	0.054130714
87	0x3d8cb436	0.0687031
88	0x3cbda5da	0.023150373
89	0x3e8315a2	0.25602442
90	0x3e426c97	0.18986736
91	0xbeab3a2b	-0.33442816
92	0xbadade4e	-0.0016698332
93	0x3e883d05	0.26609054
94	0xbe123cc6	-0.14280996
95	0x3e61f042	0.22064307
96	0xbbff929a	-0.0077994587
97	0x3c3a06ee	0.011354191
98	0xbbab1f42	-0.005222232
99	0x3d39634b	0.04526071
100	0x3e4a2f18	0.19744527
101	0xbe4940a1	-0.1965356
102	0x3d025906	0.03182318
103	0xbccc1927	-0.024914337
104	0xbc9c2fef	-0.019065825
105	0x3c380551	0.011231736
106	0xbcc71dd1	-0.02430621
107	0xbcf836c8	-0.03029956
108	0xbd0d9310	-0.034564078
109	0x3a5609f6	0.00081649364
110	0xbcbf3da1	-0.023344817
111	0x3dc029f3	0.09383001
112	0x3b8e358b	0.004339879
113	0xbd57b544	-0.052663103
114	0x3defca90	0.117085576
115	0x3dc7700b	0.097381674
116	0xbdba86df	-0.09107756
117	0x3b0d4279	0.0021554513
118	0x3df6f083	0.12057593
119	0xbc0b26d0	-0.00849314
120	0xba7779a5	-0.00094404287
121	0x3e379c85	0.17930801
122	0x3dad5c76	0.08464901
123	0x3d006a35	0.031351287
124	0xbcc83111	-0.02443746
125	0xbc9a9725	-0.0188709
126	0x3d79f4f3	0.061024617
127	0x3b9d12dd	0.0047935084
128	0x3d3325b0	0.043737113
129	0xbd24082f	-0.040046867
130	0x3d9843a8	0.074347794
131	0xbd9004a5	-0.07032136
132	0x3e40ab2c	0.18815297
133	0x3e65166f	0.22371839
134	0xbd9f2133	-0.07770004
135	0x3e091261	0.13385917
136	0x3de2be97	0.110715084
137	0xbd198533	-0.037480544
138	0x3cc354aa	0.023844082
139	0x3df7b527	0.12095099
140	0x3d1c5e54	0.038175896
141	0x3df62fd5	0.12020842
142	0x3d4c7935	0.04992028
143	0x3d7638ec	0.06011288
144	0xbe04dfd8	-0.12976015
145	0xbdcc78a1	-0.09983946
146	0x3db563cf	0.088569276
147	0x3cf0d7c6	0.029399764
148	0x3da15481	0.07877446
149	0x3e00c23d	0.12574096
150	0x3d5598e1	0.05214775
151	0xbcabf67b	-0.020991554
152	0xbddedb25	-0.10881642
153	0x3d38ea92	0.04514558
154	0x3e2ac278	0.16675746
155	0x3dbf8682	0.09351827
156	0x3be2aa73	0.006917292
157	0x3d9cadd5	0.07650343
158	0xbd8c0e46	-0.0683866
159	0xbd1f8aa5	-0.03895058
160	0x3d2cb35b	0.042163234
161	0xbd6bffb3	-0.0576169
162	0x3c2d8c9b	0.010592605
163	0xbd29f254	-0.041490868
164	0x3db3fe70	0.087887645
165	0xbd92033e	-0.07129525
166	0x3d50042f	0.05078524
167	0x3de56f1b	0.11202832
168	0xbd33391d	-0.04375564
169	0xbce8d3f5	-0.028421381
170	0x3b98a70f	0.004658587
171	0x3e2740f2	0.16333368
172	0x3da60eee	0.08108316
173	0xbc978d4b	-0.01849999
174	0x3de4e55a	0.11176558
175	0xbe027e61	-0.12743522
176	0xbd23fac9	-0.04003409
177	0xbd2014d6	-0.03908237
178	0x3d9df9ff	0.077136986
179	0x3c4a1f9c	0.012336638
180	0x3d715cd1	0.058926407
181	0xbda05077	-0.078278475
182	0xbe064279	-0.13111295
183	0x3d8c0119	0.06836147
184	0xbc2da41e	-0.010598211
185	0x3d9eaa7a	0.077473596
186	0x3d6c5c53	0.057705235
187	0x3d644b3b	0.055735808
188	0xbcb62542	-0.022234563
189	0x3e794e5a	0.24346295
190	0xbda9a10c	-0.082826704
191	0x3e4fcb32	0.20292357
192	0xbceb114e	-0.028694775
193	0xbd738daa	-0.059461273
194	0xbd198c8d	-0.037487555
195	0xbb8e227f	-0.0043376083
196	0xbcb43bd6	-0.022001188
197	0xbdf6ae83	-0.12045004
198	0x3e0dbb99	0.13841094
199	0x3e3dbbaa	0.1852862
200	0xbea87969	-0.3290513
201	0x3e418ce1	0.18901397
202	0xbcb490ab	-0.02204164
203	0x3e4ccc49	0.19999804
204	0xbea5f8d8	-0.32416415
205	0xbd51400c	-0.05108647
206	0x3b89c99c	0.004204942
207	0x3db8121d	0.0898783
208	0x3d738542	0.059453256
209	0xbdab6caa	-0.083703354
210	0xbcbb5ab0	-0.022870392
211	0xbdee7865	-0.11644057
212	0x3e01a5ce	0.12660906
213	0x3d0d3270	0.03447193
214	0xbe61e0b4	-0.22058374
215	0xbc4f5843	-0.012655321
216	0x3d1a9dd8	0.037748188
217	0xbe0ae72d	-0.13564749
218	0xbe0138e8	-0.12619364
219	0x3e77a369	0.2418343
220	0x3d205b99	0.039149854
221	0x3dde11e4	0.10843256
222	0xbea3d320	-0.31997013
223	0x3e0296e2	0.1275287
224	0xbe53a322	-0.20667699
225	0x3eb2fb50	0.3495736
226	0xbe04ed84	-0.1298123
227	0xbc764efc	-0.01503348
228	0xbe156cd9	-0.14592303
229	0xbded63b9	-0.11591286
230	0x3e667bc9	0.22508158
231	0x3e442ab8	0.19156921
232	0xbe9e08e8	-0.3086617
233	0xbdf0da5f	-0.11760401
234	0x3d8efb21	0.06981493
235	0xbe0017b7	-0.12509046
236	0x3d37b4dd	0.04485022
237	0x3e0f7ab8	0.14011657
238	0xbdbbe777	-0.09175008
239	0x3e51ac8e	0.2047598
240	0xbe30181c	-0.17196697
241	0x3d5ef1f7	0.054429974
242	0xbcd23b59	-0.025663065
243	0x3e090766	0.13381729
244	0x3e7e2d52	0.24821976
245	0x3e6bb3dd	0.23017831
246	0x3eb12ce9	0.34604576
247	0x3e5284ef	0.20558523
248	0xbe37f927	-0.17966138
249	0xbe43c9ea	-0.19119993
250	0x3c42e80d	0.0118961455
251	0x3e107db6	0.14110455
252	0xbe02366b	-0.12716071
253	0xbe4e9ca7	-0.20176946
254	0x3e427613	0.18990354
255	0xbd543a31	-0.05181331

encoder.bias_ih_l0 f4 [400]
0	0xbbf45579	-0.007456478
1	0x3e4405fa	0.19142905
2	0xbe1716a6	-0.14754733
3	0x3e05a54c	0.13051337
4	0xbe1768ff	-0.14786147
5	0xbdf2bc7c	-0.11852357
6	0xbd903728	-0.0704177
7	0xbe5e85ff	-0.21730803
8	0xbe1d688a	-0.1537191
9	0x3d372b0b	0.044718783
10	0xbe16de55	-0.1473325
11	0x3e4cf776	0.20016274
12	0xbe0ebb21	-0.13938572
13	0xbe10ff6e	-0.14159939
14	0x3d8735d8	0.06602067
15	0xbd1c305e	-0.038132064
16	0xbe3aad7c	-0.18230242
17	0xbdb3fa66	-0.08787994
18	0xbe2a2eee	-0.16619465
19	0x3dc1216a	0.09430201
20	0xbd3ce845	-0.046119947
21	0xbe5e6b56	-0.21720633
22	0x3c6eefd2	0.014583545
23	0xbd9291fd	-0.07156751
24	0x3efbb9c3	0.49165162
25	0x3cf8ae10	0.030356437
26	0x3de1995d	0.1101558
27	0xbd33052f	-0.043706115
28	0xbb758e52	-0.0037468863
29	0xbd10dbb0	-0.03536576
30	0x3d9cf72d	0.076643325
31	0x3e7c3399	0.24629058
32	0xbc2dd49a	-0.01060977
33	0x3dc165bb	0.09443232
34	0xbd8dc303	-0.06921961
35	0x3e3588b2	0.17727926
36	0xbd8fc4c0	-0.07019949
37	0x3d824fe6	0.06362896
38	0x3e82dbde	0.2555837
39	0xbcaa5ddc	-0.020796709
40	0xbdab845c	-0.08374855
41	0xbd4f8d18	-0.050671667
42	0xbd02020d	-0.031740237
43	0xbdaf1143	-0.08548214
44	0xbdbe5f3e	-0.0929551
45	0xbd20b926	-0.03923907
46	0x3d8f0d8b	0.06985005
47	0x3d6b65e3	0.057470214
48	0x3d580e66	0.052748106
49	0x3d5afa01	0.05346108
50	0xb9a58430	-0.0003156974
51	0xbc385c02	-0.011252405
52	0x3c172da0	0.009227186
53	0xbd03211e	-0.032014005
54	0xbe7107a9	-0.23538078
55	0xbd876b3a	-0.06612249
56	0xbd03895d	-0.03211342
57	0xbcb33976	-0.021877985
58	0xbd53cfbf	-0.051711794
59	0xbe9ce2e6	-0.3064186
60	0xbcf5421f	-0.029938756
61	0x3d92f316	0.07175271
62	0x3db16c24	0.08663204
63	0xbea00aff	-0.3125839
64	0xbe7f755a	-0.2494711
65	0xbc16e233	-0.0092092035
66	0x3c836fe0	0.016044557
67	0xbe32e94c	-0.17471808
68	0xbcd67f21	-0.026183667
69	0x3eacb363	0.3373061
70	0xbdba2e5d	-0.09090874
71	0x3ca6a668	0.02034302
72	0x3e4a821d	0.19776197
73	0xbd70aa46	-0.058756135
74	0x3e408353	0.18800096
75	0xbd6e5b64	-0.058192626
76	0x3e3eeda4	0.1864534
77	0xbd9f90ed	-0.07791314
78	0xba1e26e2	-0.00060330157
79	0xbe1d5aa2	-0.15366605
80	0xbd3e3c31	-0.04644412
81	0xbe51690d	-0.2045023
82	0x3dc1e714	0.09467903
83	0x3d40ac4a	0.047039308
84	0x3e19a147	0.15002929
85	0x3e751247	0.23932754
86	0x3e2d00b7	0.16894804
87	0xbe23c28c	-0.15992182
88	0xbe444931	-0.19168545
89	0xbe40e3b2	-0.18836859
90	0xbd3a7b7c	-0.04552792
91	0xbe0e3c2f	-0.13890146
92	0xbb83aca5	-0.0040183836
93	0x3d146a9b	0.03623448
94	0xbb0fb89b	-0.0021930102
95	0xbcf2e9e8	-0.02965255
96	0x3dcd74cd	0.100320436
97	0xbe424ccf	-0.18974613
98	0xbe267ca0	-0.16258478
99	0x3cc5fe2c	0.02416905
100	0x3e816286	0.2527048
101	0x3e761418	0.24031103
102	0x3e4c5da3	0.19957595
103	0xbd79ee94	-0.06101854
104	0x3cdc8ff3	0.02692411
105	0xbd7c5944	-0.061608568
106	0x3e089290	0.13337159
107	0x3e5ba376	0.21449074
108	0x3e465075	0.1936663
109	0xbddb40bf	-0.10705709
110	0x3e2b2fc6	0.16717443
111	0x3dcd6d33	0.10030594
112	0x3d3fbdf0	0.046811998
113	0x3d7c241f	0.061557885
114	0x3d9d92a4	0.07693985
115	0x3e3c0987	0.1836301
116	0x3cb59acb	0.022168538
117	0x3b5a5d1c	0.0033319658
118	0x3e246406	0.16053781
119	0x3d9346c4	0.07191232
120	0xbc6ad454	-0.0143328495
121	0x3dd3f389	0.10349185
122	0x3da05bf8	0.07830042
123	0x3e2cea25	0.16886194
124	0x3dfb931f	0.122839205
125	0x3e4a62cc	0.1976425
126	0x3dba4339	0.09094853
127	0x3e78ffd1	0.24316336
128	0xbd9d47c1	-0.076797016
129	0x3b9dda94	0.0048173163
130	0xbd18cfb1	-0.037307445
131	0xbd95498d	-0.07289419
132	0x3e755a1b	0.23960154
133	0xbd8abc11	-0.06774152
134	0x3d89a549	0.06720979
135	0x3e45b012	0.19305447
136	0x3d0d604a	0.034515657
137	0x3cf67326	0.030084204
138	0xbd0767fa	-0.033058144
139	0x3de15802	0.11003114
140	0xbce6b215	-0.028161088
141	0xbd63fef4	-0.055663064
142	0x3dd5b23a	0.10434385
143	0x3e1bf0e6	0.15228614
144	0x3db5e2ca	0.08881147
145	0x3dd43928	0.10362464
146	0x3d3d5834	0.046226695
147	0x3d07cd6d	0.033154894
148	0xbcf23638	-0.02956687
149	0x3d8dd180	0.069247246
150	0xbd8895b0	-0.066691756
151	0xbe18c27f	-0.14917944
152	0x3e454ff7	0.19268785
153	0xbdbf4eaa	-0.09341176
154	0x3ccbc18c	0.024872564
155	0x3d147440	0.036243677
156	0x3d84d652	0.06486191
157	0x3dd83e95	0.105588116
158	0x3e85c3e3	0.26126012
159	0x3e5cf709	0.21578611
160	0xbde50460	-0.11182475
161	0xbdcbb1bc	-0.099460095
162	0x3cb60e75	0.02222369
163	0x3e66cdcb	0.22539441
164	0x3dd4f6da	0.10398646
165	0xbde5c8fe	-0.11219977
166	0x3dee09e9	0.11622984
167	0x3d08bb41	0.033381704
168	0xbe492f31	-0.19646908
169	0x3d1f1cf0	0.038845956
170	0x3d8094ad	0.06278358
171	0x3d8ec843	0.06971791
172	0xbd23c5e1	-0.039983634
173	0xbe04056e	-0.12892696
174	0x3e4213a3	0.18952803
175	0x3e865a48	0.26240754
176	0x3e1a8058	0.15088022
177	0x3de65d92	0.11248316
178	0xbc90ba11	-0.017666848
179	0x3d828c79	0.06374449
180	0x3d7669d4	0.06015952
181	0x3d4c4c5e	0.049877517
182	0xbbf34436	-0.007423903
183	0x3db3e037	0.08783
184	0xbd69b531	-0.057057563
185	0xbc504d82	-0.012713792
186	0xbcb5aad0	-0.022176176
187	0x3d9f118a	0.07767017
188	0x3caef0cd	0.021355057
189	0x3d864b4a	0.06557329
190	0xbcbb9f4c	-0.022903107
191	0x3da00a63	0.07814481
192	0x3e01b6cf	0.12667392
193	0xbd14461c	-0.036199674
194	0xbe78447a	-0.24244872
195	0x3d1205b7	0.03564998
196	0xbc8203f0	-0.015871018
197	0x3dd5a020	0.10430932
198	0x3e3fd5af	0.18733858
199	0x3e02066a	0.1269776
200	0xbc58612f	-0.013206764
201	0x3c97a467	0.01851101
202	0xbd09ece4	-0.033673182
203	0x3c9fac48	0.01949133
204	0x3c1f8573	0.009736407
205	0xbd6e3d6f	-0.058164056
206	0xbda8c9cb	-0.08241614
207	0x3d2229d3	0.039590668
208	0x3b6168b4	0.0034394683
209	0x3dc2b133	0.09506454
210	0x3d560ec8	0.05226019
211	0x3c367d88	0.011138327
212	0xbd71ab31	-0.05900115
213	0x3ce0baec	0.027432881
214	0xbc5e7179	-0.013576859
215	0x3db91e8f	0.09039032
216	0x3d3f11f1	0.04664797
217	0xbd695774	-0.056968167
218	0xbcf8fb93	-0.030393397
219	0xbdb6011e	-0.08886932
220	0x3e02575a	0.12728634
221	0xbd82fbb4	-0.06395665
222	0x3ce6bca5	0.028166125
223	0xbd1d066e	-0.03833621
224	0x3dbfca84	0.09364799
225	0xbdd3e505	-0.103464164
226	0x3de0dc6a	0.10979541
227	0xbd68f247	-0.05687168
228	0xbd540a90	-0.051767886
229	0xbd918832	-0.07106055
230	0xbc809527	-0.015696121
231	0xbdc7bc11	-0.09752668
232	0xbdab42b1	-0.0836233
233	0xbd8c54ef	-0.06852137
234	0x3d06c545	0.032902975
235	0x3dca727a	0.09885116
236	0x3d04c5cd	0.0324152
237	0xbdba2c56	-0.09090488
238	0x3d853a10	0.06505215
239	0xbc3c5273	-0.011494267
240	0x3dc8a2c2	0.097966686
241	0x3bdc6ac0	0.006726593
242	0xbd7d0410	-0.061771452
243	0xbd82b60e	-0.063823804
244	0x3d89753d	0.067118146
245	0xbdb98e91	-0.090603955
246	0xbd6f00f5	-0.058350522
247	0xbc672a9d	-0.014109281
248	0xbb69ed90	-0.0035694577
249	0x3da25750	0.0792681
250	0xbdabc376	-0.083868906
251	0x3d100551	0.03516132
252	0x3caaebb2	0.020864341
253	0xbd5b31b9	-0.053514216
254	0x3a731339	0.0009272579
255	0xbc35a0e0	-0.011085719

encoder.bias_hh_l0 f4 [400]
0	0x3c56f0ef	0.0131189665
1	0x3e12573f	0.14291094
2	0xbd37efe1	-0.0449065
3	0x3dde7502	0.10862161
4	0xbe4cb39e	-0.19990394
5	0xbd9e47b3	-0.07728519
6	0xbd9f4fd4	-0.07778898
7	0xbe3083c2	-0.17237762
8	0xbd410a87	-0.04712918
9	0xbd9281cc	-0.07153663
10	0xbe39cb21	-0.18143894
11	0x3e922796	0.28545827
12	0x3c90cc59	0.017675566
13	0xbd32ecf1	-0.043682996
14	0x3df1a753	0.11799493
15	0xbc50a416	-0.012734434
16	0xbdd6fff5	-0.10498039
17	0x3c23de89	0.010001787
18	0xbde45303	-0.11148646
19	0x3e272ffc	0.16326898
20	0xbe01d363	-0.12678294
21	0xbe27eaf0	-0.16398215
22	0xbd506aa1	-0.05088294
23	0xbd84557a	-0.06461616
24	0x3f0574f8	0.52131605
25	0xbde1cb52	-0.110251084
26	0x3ce251e0	0.027626932
27	0xba7134a1	-0.0009201263
28	0xbc60cc17	-0.013720534
29	0xbdcc0c99	-0.0996334
30	0x3db8fbf4	0.09032431
31	0x3eb83dde	0.359847
32	0xbd9666ba	-0.07343812
33	0x3d21e299	0.03952274
34	0xbc24d91a	-0.010061527
35	0x3e95511b	0.2916344
36	0xbdd8e664	-0.105908185
37	0x3d75ce3f	0.060011145
38	0x3e9ac2f9	0.30226877
39	0xbdc74b0f	-0.09731113
40	0xbd85b008	-0.06527716
41	0xbdfd45aa	-0.12366803
42	0xbd7232ec	-0.059130594
43	0xbd6278c7	-0.055290964
44	0xbd41b0a4	-0.0472876
45	0xbda7a3b3	-0.0818552
46	0x3d5c13a3	0.053729665
47	0x3c5cc126	0.013473785
48	0x3cacc783	0.021091228
49	0xbd1d1bfb	-0.038356762
50	0xbd736be3	-0.05942906
51	0x3c34ea46	0.011042183
52	0xbd224209	-0.039613757
53	0xbe03636f	-0.128309
54	0xbe8e3632	-0.27775723
55	0xbc42e793	-0.011896032
56	0xbd1d9b76	-0.038478337
57	0xbc1a6c72	-0.009425269
58	0xbd47bb5d	-0.048762668
59	0xbeb0e6ba	-0.3455103
60	0x3dacdfee	0.08441149
61	0x3db3d322	0.08780505
62	0xbc78ab43	-0.015177551
63	0xbea13e9e	-0.31493086
64	0xbd984eb0	-0.074368834
65	0xbdc18062	-0.09448315
66	0xbdd8f784	-0.10594085
67	0xbe35b381	-0.17744257
68	0x3ca12f36	0.019675832
69	0x3eeadb3e	0.45870394
70	0xbd6f6c5f	-0.05845296
71	0xbd23874e	-0.03992396
72	0x3de45f89	0.111510344
73	0xbd893c5c	-0.06700966
74	0x3e510770	0.20412993
75	0x3c93299e	0.01796418
76	0x3e81e918	0.2537315
77	0xbe0c7a25	-0.1371847
78	0x3dc076e6	0.09397678
79	0xbe9670bf	-0.29382893
80	0xbdcd02a4	-0.10010269
81	0xbe98c451	-0.29837278
82	0x3e2e8fad	0.17046995
83	0x3db51434	0.08841744
84	0x3e6fe436	0.234269
85	0x3e9996f0	0.2999797
86	0x3dff96b1	0.12479914
87	0xbe24a80c	-0.1607973
88	0xbdee319d	-0.11630557
89	0xbcaf57ce	-0.021404173
90	0xbd7f481d	-0.062324632
91	0x3b4434f3	0.0029938787
92	0xbdcc922f	-0.0998882
93	0x3d04cc7d	0.032421578
94	0x3d00c8a2	0.03144134
95	0xbd82007e	-0.0634775
96	0x3c616f0f	0.013759389
97	0xbdf2d174	-0.11856356
98	0x3cc02dcc	0.023459338
99	0x3d5e305f	0.05424535
100	0x3e5655cf	0.20931171
101	0x3e6ad6cc	0.22933501
102	0x3e71a667	0.23598634
103	0xbd4731c9	-0.048631463
104	0x3dfa3bb6	0.1221842
105	0x3c877338	0.016534433
106	0x3e8aa92d	0.27082196
107	0x3e156f87	0.14593326
108	0x3e6c0296	0.23047861
109	0xbd3821b3	-0.044954013
110	0x3dba0b1e	0.09084152
111	0x3d77be1b	0.060484033
112	0x3d1cdcbc	0.038296446
113	0x3deba8ec	0.11506829
114	0x3e01c6e7	0.12673531
115	0x3e0ff6ca	0.14058986
116	0x3c35a3cf	0.011086418
117	0xbdcaf017	-0.09909075
118	0x3e070966	0.13187179
119	0x3d970a4d	0.073750116
120	0x3d663b81	0.05620909
121	0x3e8899ea	0.26679927
122	0xbd04896c	-0.03235762
123	0x3ddfad1d	0.109216906
124	0x3df9c972	0.12196626
125	0x3e0bc2f2	0.13648584
126	0xbca4bd1c	-0.020109706
127	0x3e714882	0.23562816
128	0x3cdfd2f7	0.027322276
129	0x3d9d38cf	0.07676851
130	0xbdde7778	-0.108626306
131	0xbe0a17c9	-0.13485636
132	0x3e8f999f	0.2804689
133	0xbd6603ce	-0.056155972
134	0x3d9f58c0	0.077805996
135	0x3e388435	0.18019183
136	0x3dfa0eb1	0.122098334
137	0x3d947340	0.07248545
138	0x3c8a1798	0.016856954
139	0x3dabcc1b	0.083885394
140	0x3e0e50d3	0.1389802
141	0xbd4981dc	-0.04919611
142	0xbc927cfd	-0.017881865
143	0x3db2c6f8	0.087293565
144	0x3d405722	0.046958096
145	0xbb2fd781	-0.0026831331
146	0x3d77633a	0.060397364
147	0xbd0eae05	-0.034833927
148	0xbd4c72af	-0.04991406
149	0xbd4ffd75	-0.050778825
150	0xbba1206c	-0.004917195
151	0x3adcb2c7	0.0016837948
152	0x3dec1dd3	0.11529126
153	0x3cfc34e9	0.030786948
154	0x3e0593bc	0.13044637
155	0xbcca4b43	-0.02469409
156	0x3e394361	0.1809211
157	0x3d1b7355	0.037951786
158	0x3e89f21e	0.26942533
159	0x3e0a9529	0.13533463
160	0x3d6252aa	0.055254616
161	0xbcb75588	-0.022379652
162	0x3c2d7efa	0.010589356
163	0x3e17a21a	0.1480793
164	0x3e140a7d	0.14457126
165	0xbdcf9088	-0.10134989
166	0x3de04bfa	0.109519914
167	0x3e1ca4db	0.15297262
168	0xbd513317	-0.051074114
169	0xbcd771e4	-0.026299424
170	0x3e1792fd	0.14802165
171	0x3db0dd6b	0.08635982
172	0x3d7c0b53	0.061534237
173	0xbd4724cb	-0.048619073
174	0x3e066f0a	0.13128296
175	0x3e7c9cab	0.24669139
176	0xbcc336f7	-0.02382992
177	0x3dddcc7d	0.10830019
178	0x3c5500ce	0.01300068
179	0x3e3c9883	0.18417554
180	0x3cfbf7ae	0.030757751
181	0x3e6367ac	0.22207516
182	0x3d764e32	0.060133167
183	0xbc7a0124	-0.015259061
184	0xbc21d5b1	-0.009877608
185	0xbd2c8e6a	-0.042128004
186	0xbcb2c126	-0.021820616
187	0x3d342145	0.04397704
188	0x3d29f7ff	0.041496273
189	0x3d76a2d6	0.060213886
190	0x3dfe11ec	0.12405762
191	0x3e3911de	0.18073222
192	0x3dcbaeaf	0.099454276
193	0x3b88919d	0.004167749
194	0xbe9d8c5c	-0.30771148
195	0x3e69c12f	0.228276
196	0xbd884621	-0.06654001
197	0x3c8c31b2	0.01711354
198	0x3e60fe3a	0.2197198
199	0xbb969bc2	-0.0045962045
200	0xbd20cf4f	-0.039260205
201	0x3d9b4496	0.07581441
202	0xbc8de0b0	-0.017319053
203	0xbdd2057f	-0.102549545
204	0x3de08b01	0.10964013
205	0xbd06dbc6	-0.032924436
206	0x3d057a04	0.032587066
207	0x3d59cb7c	0.053172573
208	0x3d5655c2	0.05232788
209	0x3d4c72b2	0.04991407
210	0xbc95ef76	-0.01830266
211	0x3dff921b	0.12479039
212	0x3d2531aa	0.040330566
213	0xbd28b3df	-0.041187163
214	0x3df12d07	0.117761664
215	0x3d993b14	0.074819714
216	0x3c9ab065	0.01888294
217	0xbcacc2a2	-0.021088902
218	0x3d9448ae	0.07240425
219	0xbd33d714	-0.043906286
220	0x3d862e5e	0.065518126
221	0xbc849aef	-0.01618716
222	0x3dc97cbc	0.09838244
223	0xbd594f60	-0.053054214
224	0x3e26e486	0.16298112
225	0xbdadc9ac	-0.084857315
226	0x3c09cb19	0.008410239
227	0xbd3429df	-0.043985244
228	0x3defaf87	0.11703401
229	0x3d764fa0	0.06013453
230	0xbdb3bf99	-0.08776779
231	0xbdad2231	-0.08453787
232	0xbd7f534f	-0.06233531
233	0x3d541e77	0.051786866
234	0xbd24293f	-0.040078398
235	0x3d014e41	0.03156877
236	0xbdf61271	-0.12015236
237	0xbe028358	-0.12745416
238	0x3e11301c	0.14178509
239	0x3d4268b1	0.047463123
240	0xbc26b751	-0.010175542
241	0xbd86435e	-0.06555818
242	0xbd0c7dcd	-0.03429966
243	0xbce5d163	-0.028053945
244	0xbda532fc	-0.08066365
245	0xbdd001dc	-0.10156605
246	0x3d72015b	0.059083324
247	0xbbfd6b4d	-0.0077337385
248	0x3cfc2db3	0.03078351
249	0xbc249b3b	-0.010046775
250	0x3d80fcbc	0.06298205
251	0x3dcfd8cc	0.101487726
252	0xbc925611	-0.017863305
253	0x3cc70372	0.024293635
254	0xbd013c3e	-0.031551592
255	0x3cd6f1aa	0.026238281

encoder.weight_ih_l0_reverse f4 [400, 100]
0	0xbd0409f7	-0.032236066
1	0xbe285407	-0.16438304
2	0x3f05435f	0.52055925
3	0xbba4ffd8	-0.0050353818
4	0x3e089442	0.13337806
5	0xbedcdf80	-0.43139267
6	0xbd333a50	-0.043756783
7	0xbe4f3a97	-0.20237194
8	0x3ef54b38	0.4790895
9	0x3e95d328	0.29262662
10	0x3e8304ac	0.25589502
11	0x3e287bc4	0.16453463
12	0xbdfaee37	-0.12252467
13	0xbd21a6be	-0.03946566
14	0xbe48ed15	-0.1962169
15	0xbe4eab53	-0.20182543
16	0xbe40db68	-0.18833697
17	0xbe0438a2	-0.12912229
18	0x3f2df3cd	0.67950135
19	0x3df2c8a1	0.11854673
20	0xbce53934	-0.027981378
21	0xbd8fd560	-0.0702312
22	0x3ee48432	0.44632107
23	0x3e8a2d4b	0.2698768
24	0x3e7f50cd	0.24933167
25	0xbd7ee4fe	-0.062230103
26	0xbe6c8303	-0.23096852
27	0x3e03d3e7	0.12873803
28	0xbe5b6ffd	-0.21429439
29	0xbd4e9b44	-0.05044104
30	0x3e35c4e7	0.17750894
31	0xbd8a3f51	-0.06750358
32	0x3d624d19	0.055249307
33	0xbf20ee67	-0.62863773
34	0xbe8d468a	-0.2759288
35	0x3e3847d9	0.17996158
36	0x3eaa1dd2	0.33225876
37	0xbd9b0983	-0.075701736
38	0xbe249f2e	-0.16076347
39	0x3ebb0df8	0.36534095
40	0x3e172b37	0.14762579
41	0xbdb56589	-0.08857257
42	0x3e6ad48a	0.2293264
43	0x3e925d01	0.2858658
44	0xbeaecc69	-0.34140328
45	0xbe81d4ba	-0.2535761
46	0x3d9eb8ed	0.077501155
47	0x3e068686	0.13137254
48	0xbf00d18c	-0.50319743
49	0x3d8fada9	0.07015545
50	0x3e645a3a	0.22300044
51	0x3eac8b85	0.33700195
52	0x3e3db8b8	0.18527496
53	0xbd784d35	-0.060620505
54	0x3eac2657	0.33623
55	0x3e926ad4	0.28597128
56	0x3bd5d8aa	0.0065260725
57	0x3e18fdf2	0.14940622
58	0xbe12fe1e	-0.1435475
59	0x3e0951ae	0.13410065
60	0x3ea84dc4	0.3287183
61	0xbe4f0f1c	-0.20220608
62	0x3e06295f	0.1310172
63	0x3e608182	0.21924403
64	0x3dd6fc47	0.10497337
65	0xbe11567d	-0.14193149
66	0x3d203745	0.03911521
67	0xbdad26bf	-0.08454656
68	0xbe0f60df	-0.14001797
69	0x3c52a48f	0.012856617
70	0x3e5e9b99	0.21739043
71	0x3d4ca5ad	0.04996269
72	0xbcc65275	-0.02420924
73	0x3dccfa87	0.10008722
74	0xbd3d9892	-0.04628808
75	0x3dede1de	0.11615346
76	0x3e375708	0.17904294
77	0x3ed4d32c	0.4156736
78	0xbcbb64e9	-0.022875266
79	0x3ea2e46a	0.3181489
80	0x3dbb629b	0.09149667
81	0x3e50c67a	0.20388213
82	0x3e5d1906	0.21591577
83	0xbe51c813	-0.20486479
84	0x3e03a77e	0.12856862
85	0xbdc2b902	-0.09507944
86	0xbe694614	-0.22780639
87	0xbd0598bd	-0.032616366
88	0xbe904dd4	-0.28184378
89	0xbec703e0	-0.38870144
90	0xbd974822	-0.07386805
91	0x3e48bb28	0.19602644
92	0xbdb5b759	-0.088728614
93	0xbe6aa5b7	-0.22914778
94	0xbd55568c	-0.05208449
95	0x3e28b40a	0.1647493
96	0xbbf1af12	-0.0073756063
97	0xbd4f7ff5	-0.05065914
98	0xbcb6bb01	-0.022305967
99	0xbe955270	-0.29164457
100	0xbc9723f1	-0.018449755
101	0xbea8931b	-0.32924733
102	0xbe9c2fb0	-0.30505133
103	0x3eaf0e2d	0.34190503
104	0x3e4e4318	0.20142782
105	0x3e05b9aa	0.13059106
106	0x3d3d2f13	0.04618747
107	0x3e2edb5f	0.17075871
108	0xbe23a7ac	-0.1598193
109	0x3e55feb7	0.20897947
110	0xbd698d63	-0.057019603
111	0xbe1c36a0	-0.15255213
112	0xbda4d33a	-0.08048101
113	0xbd0154d1	-0.031575028
114	0xbbf867fb	-0.007580755
115	0x3e8107c3	0.25201234
116	0xbe01fb0d	-0.12693425
117	0x3d92845c	0.07154152
118	0x3de52827	0.11189299
119	0xbe142f41	-0.14471151
120	0xbdf0230e	-0.11725436
121	0xbee29346	-0.44252986
122	0x3e57db2b	0.210797
123	0x3dc78be2	0.097434774
124	0xbe2d8e61	-0.16948844
125	0xbe87c43c	-0.26516902
126	0x3eb63423	0.35586652
127	0x3de11789	0.10990817
128	0x3d73d620	0.059530377
129	0x3e670139	0.2255906
130	0xbd1a8edf	-0.03773391
131	0xbe1394cb	-0.14412229
132	0xbe533f7f	-0.2062969
133	0x3f073099	0.5280853
134	0xbe0e5b59	-0.13902034
135	0x3dab750a	0.08371933
136	0x3e6b9d0f	0.23009132
137	0xbe778a3d	-0.24173827
138	0xbd44160a	-0.04787258
139	0xbe4a2128	-0.1973921
140	0xbe207fc0	-0.15673733
141	0x3e8635ef	0.26213023
142	0xbdda44ed	-0.10657678
143	0x3d92ebdb	0.07173892
144	0xbe0becf5	-0.1366461
145	0xbde80e45	-0.11330847
146	0x3db8fea5	0.090329446
147	0x3e2bb1af	0.16767
148	0x3c709aea	0.014685372
149	0x3d96550f	0.073404424
150	0xbe1a3262	-0.15058282
151	0x3d07461e	0.033025853
152	0x3e478f84	0.1948834
153	0xbe4ed202	-0.20197299
154	0xbe2cfff4	-0.16894513
155	0xbc01c5cb	-0.007920693
156	0xbe8ca23a	-0.2746752
157	0xbe74863d	-0.23879333
158	0xbd46f525	-0.04857363
159	0x3c354b24	0.011065278
160	0xbe0640bd	-0.13110633
161	0xbd82c02c	-0.0638431
162	0x3ef1e385	0.47243896
163	0xbd89516f	-0.06704985
164	0xbdb8df04	-0.09026912
165	0xbdc0dde6	-0.09417324
166	0xbe8bc1fb	-0.27296433
167	0x3e3e5252	0.1858609
168	0xbd80583d	-0.0626683
169	0xbd787ddf	-0.060666915
170	0x3ba4206c	0.005008748
171	0xbd8234e7	-0.063577466
172	0xbe75bf08	-0.23998654
173	0xbe3e2a3a	-0.18570796
174	0xbd7fb0ba	-0.0624244
175	0x3d7c6082	0.061615475
176	0x3b0a5912	0.002111022
177	0x3d647ee9	0.055785093
178	0x3d3f163f	0.046652075
179	0xbe97dfe8	-0.29663014
180	0x3dd948dc	0.106096
181	0x3e0f7f3d	0.14013381
182	0x3e3c3917	0.18381153
183	0xbeaabdaa	-0.33347827
184	0xbca3be09	-0.019988077
185	0xbd227050	-0.03965789
186	0x3e90c9fb	0.282791
187	0xbd4f9b66	-0.05068531
188	0x3bd60eea	0.0065325396
189	0x3e0d9c2a	0.13829103
190	0xbd7ddc93	-0.061977934
191	0xbdc12d5d	-0.094324805
192	0xbe06fd56	-0.13182577
193	0x3cea8046	0.028625619
194	0x3d6f20e8	0.05838099
195	0x3e994a18	0.29939342
196	0x3e03dba1	0.1287675
197	0x3e49205e	0.19641253
198	0xbd8ab96b	-0.06773647
199	0xbe8c7bcd	-0.27438203
200	0x3e9cc809	0.30621365
201	0xbe9bbd43	-0.30417833
202	0xbe40d2e8	-0.18830454
203	0xbe29b32b	-0.16572253
204	0x3e8b5f38	0.27221084
205	0x3ce6dbee	0.028181043
206	0xbdb3c51d	-0.08777831
207	0xbe39bf55	-0.18139394
208	0xbd868ee6	-0.065702245
209	0x3e2ae841	0.1669016
210	0xbda44c46	-0.080223605
211	0xbdae2e7c	-0.0850496
212	0xbeee7465	-0.46573177
213	0xbdb3a4e9	-0.087716885
214	0x3e7701b0	0.24121737
215	0x3e3061bb	0.17224781
216	0x3e0c3abb	0.13694279
217	0x3e432f3c	0.19060987
218	0x3ee73c88	0.4516337
219	0xbebc9ecf	-0.3683991
220	0xbe89788a	-0.26849777
221	0x3dbded60	0.09273791
222	0x3e40ebcb	0.18839948
223	0x3e47b0de	0.19501063
224	0x3e2ade9a	0.16686478
225	0xbc044a2f	-0.008074327
226	0xbdd6144e	-0.104530916
227	0x3da3e37f	0.08002376
228	0x3c5200da	0.012817586
229	0x3e13ecac	0.14445752
230	0xbc1fcfdc	-0.009754147
231	0xbd53419d	-0.051576246
232	0xbcbc6c5e	-0.023000892
233	0xbdd53b49	-0.10411698
234	0x3c9e38b2	0.019314144
235	0xbe9ced1b	-0.30649647
236	0xbe561efc	-0.20910257
237	0xbe6d7044	-0.23187357
238	0x3ee59f1f	0.44847962
239	0xbd5ed9cd	-0.05440693
240	0x3e82c8b4	0.2554375
241	0x3c4b97b6	0.012426307
242	0x3dc20a2d	0.09474597
243	0xbdf497c8	-0.119430125
244	0xbe53388e	-0.20627043
245	0xbe98eb69	-0.29867104
246	0xbe7d8fde	-0.24761912
247	0x3ee0caa0	0.4390459
248	0x3d0c6841	0.03427911
249	0x3e1dd273	0.15412311
250	0xbc6c4d1e	-0.014422683
251	0x3f034492	0.51276505
252	0x3ec47eeb	0.3837808
253	0xbb801fbc	-0.003910033
254	0x3dd6c9d5	0.10487715
255	0x3e0a9927	0.13534985

encoder.weight_hh_l0_reverse f4 [400, 100]
0	0xbebb773d	-0.3661441
1	0x3cff3cfb	0.031157007
2	0x3e38dbc0	0.18052578
3	0x3ce706cf	0.028201489
4	0xbd1f5e2c	-0.03890817
5	0xbddf3063	-0.10897901
6	0x3e8c5026	0.27404898
7	0xbcc5bd40	-0.024138093
8	0x3d0b5fc5	0.03402688
9	0xbe2b734e	-0.16743204
10	0xbe673db1	-0.22582127
11	0xbd2906b8	-0.041266173
12	0xbd0145b7	-0.031560626
13	0x3de0b165	0.10971335
14	0xbea8d428	-0.32974362
15	0x3dd80984	0.1054869
16	0xbe1379c3	-0.14401917
17	0xbcf3c956	-0.02975909
18	0x3d5f9227	0.05458274
19	0x3da778d2	0.081773415
20	0x3b851aa2	0.004062013
21	0x3c05f3e5	0.008175825
22	0x3d66e367	0.05636921
23	0x3caa1580	0.020762205
24	0x3cd85f30	0.026412576
25	0xbe072ffe	-0.13201901
26	0x3d105908	0.035241157
27	0xbc3f9b78	-0.0116947815
28	0xba3bc307	-0.0007162545
29	0x3dc7ea04	0.09761432
30	0xbd7c6ecf	-0.061629113
31	0x3cd4b04f	0.025962977
32	0x3e0cb1af	0.13739656
33	0x3e634780	0.22195244
34	0xbdeace78	-0.11465162
35	0xbc67284a	-0.014108727
36	0xbdc956c0	-0.098309994
37	0x3c6fb648	0.014630862
38	0x3d6630cb	0.056198876
39	0xbd661df1	-0.056180898
40	0xbd9ff119	-0.078096576
41	0x3c9e6151	0.019333513
42	0xbc9cd039	-0.019142257
43	0x3dcdbeff	0.10046195
44	0x3def8430	0.11695135
45	0x3de6c422	0.11267878
46	0x3c60b585	0.013715153
47	0x3bbdbcf2	0.0057903463
48	0x3e20bbfb	0.15696709
49	0xbda7c3e3	-0.08191659
50	0x3e06b16c	0.13153619
51	0x3e103caf	0.14085649
52	0xbd4ea31d	-0.050448526
53	0x3d9dec0f	0.0771104
54	0xbdce9df2	-0.100887194
55	0x3e797382	0.24360469
56	0x3dd452c5	0.103673495
57	0x3c8409b1	0.016117902
58	0xbd144c33	-0.03620548
59	0x3c1d6432	0.009606408
60	0x3d195dc9	0.037442956
61	0x3e0ea8e6	0.13931617
62	0x3d550d1e	0.052014463
63	0xbc8f2771	-0.017474862
64	0x3ca1cf0c	0.019752048
65	0xbdd3cf56	-0.103422806
66	0x3d9665ed	0.073436595
67	0xbd6039c4	-0.05474259
68	0x3a319cea	0.0006775396
69	0xbd2c7287	-0.04210141
70	0x3c174cb8	0.0092346
71	0xbcf96206	-0.030442249
72	0xbd977ce9	-0.073968716
73	0xbd9ea2a1	-0.07745863
74	0xbd3b1b5f	-0.0456804
75	0xbc4f6217	-0.012657664
76	0xbe53bb11	-0.20676829
77	0xbc307b8d	-0.010771644
78	0xbda54568	-0.08069879
79	0x3e7a40a2	0.24438718
80	0x3dc075c6	0.093974635
81	0x3e2f02d0	0.17090917
82	0x3d9f31f1	0.077731974
83	0x3cf6f98e	0.030148294
84	0x3c7b0516	0.015321037
85	0xbd67fd39	-0.056637976
86	0x3e07ad90	0.13249803
87	0xbe7218a9	-0.2364222
88	0xbd8e5ea3	-0.06951644
89	0x3e579ee2	0.21056703
90	0xbe23df8d	-0.16003247
91	0xbe17b076	-0.14813408
92	0xbc849ceb	-0.016188106
93	0xbc10ae65	-0.008830641
94	0x3dfdd1fd	0.12393568
95	0xbccff659	-0.025386022
96	0x3e588990	0.21146226
97	0xbd339ae2	-0.04384888
98	0xbe72d265	-0.23713072
99	0x3d89ac02	0.06722261
100	0xbdb8df3b	-0.09026953
101	0xbd751d56	-0.05984243
102	0xbca6e71e	-0.020373877
103	0x3c6a3728	0.014295377
104	0xbd383a84	-0.04497768
105	0xbe147f06	-0.1450158
106	0xbe681fda	-0.226684
107	0x3e2ce4c4	0.16884142
108	0x3d769ce3	0.060208213
109	0x3e1dccec	0.15410203
110	0x3dda08fb	0.10646244
111	0xbd5857aa	-0.052817978
112	0x3da7220e	0.08160792
113	0xbe6a8d79	-0.2290553
114	0x3df06f8b	0.11740025
115	0xbe2282c5	-0.15870197
116	0xbd528084	-0.051392093
117	0x3d036f19	0.032088373
118	0xbd4ddf06	-0.05026152
119	0x3e530175	0.20606025
120	0x3e4728da	0.19449177
121	0x3e541024	0.20709282
122	0xbddb10a4	-0.10696533
123	0xbdfab9ce	-0.12242471
124	0xbc25b381	-0.010113598
125	0xbdfe711f	-0.1242392
126	0xbcbcda68	-0.023053363
127	0x3d013ce7	0.03155222
128	0x3d87de04	0.06634143
129	0x3d45e204	0.04831125
130	0x3e14024a	0.14453998
131	0xbd822806	-0.0635529
132	0x3d97620f	0.0739175
133	0x3e5f1927	0.21786939
134	0x3e19fc49	0.15037645
135	0x3b4d4b35	0.0031325344
136	0x3c6c06d8	0.014405929
137	0xbb5198ad	-0.003198187
138	0x3e6770c2	0.22601607
139	0x3e034d06	0.12822351
140	0xbca8baa4	-0.02059681
141	0x3d91c458	0.07117528
142	0x3d4331bf	0.047654863
143	0xbe379fe1	-0.17932083
144	0x3d00a07a	0.031403042
145	0x3d15a2d5	0.03653224
146	0xbda8de47	-0.08245521
147	0xbdc2a499	-0.09504051
148	0xbd9c186d	-0.07621846
149	0xbda460bc	-0.08026263
150	0x3bf5dfcb	0.007503485
151	0xbce4ea4e	-0.027943756
152	0xbcf0f715	-0.029414693
153	0x3db333af	0.08750092
154	0xbc6db654	-0.014508802
155	0x3d241f46	0.040068887
156	0xbcf036cd	-0.029323006
157	0x3d17c295	0.037050802
158	0x3db3880a	0.08766182
159	0xbe14482a	-0.14480653
160	0x3da5649e	0.08075832
161	0x3de7ec36	0.113243505
162	0xbd2f540d	-0.042804766
163	0x3bcfc8bc	0.006341068
164	0x3e1d264e	0.15346643
165	0x3e06cd6b	0.13164298
166	0xbd5c8fbe	-0.05384802
167	0x3e0646da	0.13112965
168	0xbd560f20	-0.052260518
169	0x3db13dc7	0.08654361
170	0xbc2ccf7f	-0.010547518
171	0xbc4c0fd4	-0.012454946
172	0xbd686bda	-0.05674348
173	0x3e3e2550	0.18568921
174	0x3dc3585f	0.0953834
175	0x3d1bdbd8	0.038051456
176	0x3d36973c	0.044577822
177	0xbac6d6ab	-0.0015170177
178	0xbddf8477	-0.109139375
179	0x3e163a2d	0.1467063
180	0x3cd737da	0.02627175
181	0xbde176f9	-0.1100902
182	0x3deec8f8	0.116594255
183	0x3d34808f	0.044067916
184	0x3d52d04a	0.05146817
185	0x3dc96262	0.09833218
186	0x3df46218	0.119327724
187	0xbd978486	-0.07398324
188	0x3dd63259	0.10458822
189	0x3d0430a7	0.03227296
190	0xbbd3ebee	-0.006467334
191	0xbe46e73c	-0.19424146
192	0x3da3c0b3	0.07995739
193	0xbdb67db4	-0.08910695
194	0xbda2218e	-0.07916556
195	0xbd4ca68e	-0.049963526
196	0xbdda008f	-0.10644638
197	0xbd9fcfe6	-0.07803325
198	0xbc1fd6db	-0.009755815
199	0x3d6bc075	0.05755659
200	0x3dd055a4	0.10172585
201	0x3dd90d57	0.105982475
202	0x3dd4d538	0.10392231
203	0x3e822fd0	0.25427103
204	0xbe37d604	-0.17952734
205	0xbe22f2c1	-0.15912916
206	0x3e61b8e9	0.22043194
207	0xbe01a9d5	-0.12662442
208	0xbcf73875	-0.030178288
209	0xbc829b03	-0.015943056
210	0xbdadf4cc	-0.08493957
211	0xbe0e46fe	-0.13894269
212	0xbdc251e4	-0.09488276
213	0x3c1c4a72	0.0095392335
214	0xbe7b9452	-0.24568298
215	0xbd9530dd	-0.072847106
216	0xbdce160e	-0.100628
217	0xbe5e3503	-0.2169991
218	0xbc0545ce	-0.0081343185
219	0x3d886107	0.066591315
220	0xbd29795f	-0.041375514
221	0x3d6c1d39	0.057645056
222	0xbe148163	-0.14502482
223	0xbbe03ecb	-0.006843423
224	0xbd978fe1	-0.074004896
225	0x3dd2b53a	0.102884725
226	0x3dc6d63a	0.09708829
227	0xbde808f5	-0.113298334
228	0xbe24eaf4	-0.16105253
229	0xbdfd9714	-0.123823315
230	0x3da729aa	0.08162244
231	0x3d960dcf	0.073268525
232	0x3def6d97	0.116908245
233	0xbd56d7c3	-0.05245186
234	0x3d787d62	0.06066645
235	0xbdf56052	-0.11981262
236	0xbd8002e3	-0.062505506
237	0x3e434f8d	0.19073315
238	0xbda87457	-0.08225315
239	0xbd28cef0	-0.041212976
240	0xbd27ba29	-0.04094902
241	0x3e08de43	0.13366036
242	0xbd000501	-0.031254772
243	0x3d8f2a0a	0.0699044
244	0x3e7f8378	0.24952495
245	0x3de81b14	0.1133329
246	0x3e621fea	0.22082487
247	0xbad4661c	-0.0016204747
248	0xbe700044	-0.23437601
249	0xbe3c72d9	-0.18403186
250	0xbd15f278	-0.03660819
251	0xbe1faa52	-0.15592316
252	0xbde72c02	-0.11287691
253	0xbb693799	-0.0035586117
254	0xbd295e35	-0.04134961
255	0xbe54205c	-0.20715469

encoder.bias_ih_l0_reverse f4 [400]
0	0xbdeba698	-0.115063846
1	0xbd9e0f7e	-0.07717799
2	0xbd85de65	-0.06536559
3	0xbd0c1b73	-0.034205865
4	0x3d15d283	0.036577713
5	0xbd85832e	-0.06519161
6	0xbdf2227a	-0.11822982
7	0xbe5845c1	-0.21120359
8	0xbd08d60c	-0.033407256
9	0xbdb5d4b1	-0.08878458
10	0xbdfe475b	-0.12415954
11	0xbe04817b	-0.12940018
12	0xbdc009ab	-0.09376844
13	0xbe05cba8	-0.1306597
14	0x3cef06cd	0.029178048
15	0x3bbf2885	0.0058336877
16	0xbe6bec44	-0.23039347
17	0xbe04c0c5	-0.1296416
18	0xbd611b4c	-0.054957673
19	0x3c19c88a	0.009386191
20	0xbe7bfed2	-0.24608925
21	0xbe2481bb	-0.16065113
22	0xbe1eb381	-0.15498163
23	0xbdb50026	-0.08837919
24	0x3a219373	0.0006163634
25	0xbd819659	-0.06327505
26	0xbda04efc	-0.07827565
27	0xbe17208f	-0.14758514
28	0xbe5118d8	-0.20419633
29	0xbef18cb8	-0.47177672
30	0xbdbe357e	-0.092875466
31	0xbebf59ce	-0.37373203
32	0x3d4a4386	0.0493808
33	0xbe5543ad	-0.20826598
34	0xbeaa5cd3	-0.33273944
35	0x3da92c13	0.082603596
36	0xbddfa6c0	-0.10920477
37	0x3d9370fd	0.07199285
38	0xbd0f5f36	-0.03500291
39	0xbe437c02	-0.19090274
40	0xbddd3594	-0.10801235
41	0xbe3ba1b9	-0.18323411
42	0xbe2ac8b6	-0.16678128
43	0xbdcbaac5	-0.09944681
44	0xbd0d251d	-0.034459222
45	0xbe435ba5	-0.19077928
46	0xbd42de71	-0.047575418
47	0xbe07d226	-0.13263759
48	0x3d42c2d1	0.047549073
49	0x3d685e54	0.056730583
50	0xbe21135a	-0.15730038
51	0x3d69737e	0.056994908
52	0x3b1438bc	0.0022616824
53	0xbe172fc5	-0.14764316
54	0xbe589ba8	-0.21153128
55	0xbe62150a	-0.22078338
56	0xbd9efb57	-0.07762783
57	0xbd8654c5	-0.06559137
58	0xbc8d6d3a	-0.017263997
59	0x3d77b921	0.060479287
60	0xbe5203df	-0.20509289
61	0xbe2fcf6a	-0.17168966
62	0xbc92f261	-0.01793784
63	0xbdcf4bc2	-0.101218715
64	0xbbb61c91	-0.0055576046
65	0xbdf09842	-0.11747791
66	0x3c9a2d55	0.018820444
67	0x3cb2c1b3	0.021820879
68	0xbbca0473	-0.006165081
69	0x3daeb5f8	0.085308015
70	0xbd8f266f	-0.069897525
71	0xbe42ad58	-0.19011438
72	0xbd1016f4	-0.03517814
73	0xbe8bf636	-0.27336282
74	0xbdbc81a1	-0.09204412
75	0xbe3659ed	-0.17807741
76	0xbe620c75	-0.22075064
77	0xbc9db07d	-0.019249195
78	0xbe4ad4de	-0.19807765
79	0xbd0403d4	-0.032230213
80	0x3d0af20c	0.03392224
81	0xbe822837	-0.25421306
82	0x3c811384	0.015756376
83	0xbe2d42f9	-0.1692008
84	0x3dc278a8	0.094956696
85	0xbc9e7a57	-0.019345446
86	0xbcf81c9e	-0.030287083
87	0xbc295d4c	-0.010337185
88	0xbd95f20c	-0.073215574
89	0xbe086f43	-0.13323693
90	0xbdbea9ee	-0.09309755
91	0xbd957326	-0.072973534
92	0xbcb7463b	-0.022372356
93	0xbe09db31	-0.13462521
94	0xbd985736	-0.07438509
95	0xbd26521f	-0.04060566
96	0x3d257fe6	0.040405177
97	0xbe1415a7	-0.14461385
98	0xbd67d156	-0.056596123
99	0xbe33a917	-0.17544971
100	0x3e06db35	0.13169558
101	0x3db78992	0.08961786
102	0x3d82ddf5	0.06389991
103	0x3e472022	0.19445851
104	0xbce108d5	-0.027470032
105	0x3df4eaf9	0.1195888
106	0x3de9824c	0.11401805
107	0x3c5f4b4d	0.013628793
108	0x3ce6c0b0	0.028168052
109	0x3dcf682a	0.101272896
110	0x3d9f609a	0.07782097
111	0x3e18688a	0.14883628
112	0x3ce463bf	0.027879594
113	0x3d771887	0.060326125
114	0xbd651010	-0.05592352
115	0x3e852a65	0.26008907
116	0x3deb1a4f	0.11479627
117	0x3de4399e	0.11143802
118	0x3e81c240	0.25343513
119	0xbd3b7b0b	-0.04577164
120	0x3d8aa838	0.067703664
121	0x3e607847	0.21920882
122	0x3e3c8b6f	0.18412565
123	0x3e16f522	0.14741948
124	0xbd12426a	-0.03570787
125	0xbc169b44	-0.009192292
126	0x3e820679	0.25395563
127	0x3d635bc1	0.055507425
128	0x3d06e475	0.032932717
129	0x3e4e5f92	0.20153645
130	0xbcd5b017	-0.026084943
131	0x3e2cf55f	0.16890477
132	0x3e03f5a0	0.12886667
133	0x3e3393f1	0.17536904
134	0x3dc5a4b5	0.09650556
135	0xbadb4709	-0.0016729544
136	0x3d426420	0.047458768
137	0x3e89f867	0.26947328
138	0x3ea0f864	0.31439507
139	0x3b93c98b	0.00451011
140	0x3cda988b	0.026684066
141	0x3da6cd7b	0.08144661
142	0x3e287b62	0.16453317
143	0x3e1ccbe4	0.15312153
144	0x3d481891	0.048851553
145	0x3e3cd73a	0.18441477
146	0x3b499277	0.0030757466
147	0x3dbc66c3	0.09199288
148	0xbcec1ca5	-0.028822253
149	0x3e3b717d	0.18305011
150	0x3e0b7df2	0.13622263
151	0x3dd5ea50	0.10445082
152	0x3cf38dfd	0.029730791
153	0x3e1dda21	0.15415241
154	0x3e615c3d	0.22007842
155	0xbd826434	-0.063667685
156	0xbd67e9d1	-0.05661947
157	0x3e149a92	0.14512089
158	0xbd1ed38b	-0.03877596
159	0xbdbf84ac	-0.09351477
160	0x3cc43ea9	0.02395566
161	0x3d9f91d9	0.0779149
162	0xbb6b8c9b	-0.0035941962
163	0x3c268031	0.010162399
164	0xbc4f2edc	-0.0126454495
165	0x3e49c726	0.19704875
166	0x3e5a06df	0.21291684
167	0x3dd49456	0.10379855
168	0x3dbdfaea	0.09276374
169	0xbd874a95	-0.06606022
170	0x3ea77d56	0.3271281
171	0x3d8ade3e	0.067806706
172	0x3ddc59e7	0.10759335
173	0x3de20dfa	0.11037822
174	0x3e29210f	0.16516517
175	0x3dbbcaa7	0.09169512
176	0x3e98cbef	0.2984309
177	0x3eb6ed98	0.35728145
178	0x3cfc5eeb	0.03080698
179	0x3e27728d	0.16352291
180	0x3e2eb986	0.17062959
181	0x3eac9788	0.3370936
182	0x3d14fb07	0.03637221
183	0x3c58b798	0.013227366
184	0x3e4d1019	0.20025672
185	0x3da6c908	0.081438124
186	0xbd8482f6	-0.06470291
187	0xbdee7b4a	-0.11644609
188	0x3d16a24a	0.036775865
189	0xbd14810b	-0.036255877
190	0x3e368fdb	0.17828314
191	0x3be07a98	0.006850552
192	0xbca31cdc	-0.019911222
193	0x3e4609a7	0.1933962
194	0x3e3eab15	0.1861995
195	0xbd3c9be2	-0.0460471
196	0x3ca6914a	0.020332951
197	0x3e38e92b	0.18057697
198	0x3bb92ec7	0.0056513282
199	0x3dfe4f80	0.12417507
200	0x3d3be6c6	0.04587438
201	0xbc8569c4	-0.016285785
202	0xbc9314f8	-0.017954335
203	0x3bc52fd6	0.0060176654
204	0x3dc25ac8	0.094899714
205	0x3d34d5dd	0.04414927
206	0xbcad2665	-0.021136472
207	0xbd5c066c	-0.053717062
208	0x3d495479	0.049152825
209	0x3de089e7	0.10963803
210	0xbdf33e3f	-0.11877107
211	0x3dbdfef8	0.09277147
212	0xbd5378dc	-0.051628932
213	0x3d832de3	0.064052366
214	0x3d89a1e4	0.06720331
215	0x3cd45cd9	0.02592318
216	0x3dae8920	0.08522248
217	0xbc6da433	-0.01450448
218	0x3d227e0e	0.039670996
219	0x3a865dc3	0.0010251332
220	0x3cda3956	0.026638668
221	0xbd0eb2c6	-0.03483846
222	0xbc163149	-0.009167024
223	0x3d88ad93	0.06673732
224	0x3d0b3772	0.033988424
225	0xbd99fe88	-0.07519251
226	0xbd3bc6d4	-0.045843914
227	0xbd580b0c	-0.05274491
228	0x3d056c9b	0.032574277
229	0xbcded1f3	-0.027199721
230	0xbd39f062	-0.045395263
231	0xbd17233e	-0.036898844
232	0x3d399899	0.045311544
233	0xbdab7002	-0.08370973
234	0xbd598012	-0.053100653
235	0xbd15c8ce	-0.036568455
236	0x3dcfd542	0.101480976
237	0x3d9ce0a3	0.076600336
238	0xbd267e7f	-0.04064798
239	0xbdbb9438	-0.0915913
240	0xbdafbb66	-0.08580665
241	0xba005755	-0.0004895826
242	0xbc841eaa	-0.016127903
243	0xbc95ab48	-0.01827015
244	0xbd842a02	-0.06453325
245	0x3c87b460	0.016565502
246	0xbdea91f3	-0.11453619
247	0xbd22fe01	-0.03979302
248	0xbc45ff44	-0.012084786
249	0x3d43dded	0.047819067
250	0xbca65d22	-0.020308081
251	0xbc67dddf	-0.014152019
252	0x3daf59bb	0.085620366
253	0xbcbcb184	-0.023033865
254	0x3b8cc22c	0.004295608
255	0xbd9fd2e2	-0.078038946
